abr/data/embed_projection.pt (torch, 125858 bytes, 6 tensors)

embedding_projection.0.weight f4 [100, 256]
0	0x3b2a4d54	0.0025986033
1	0xba87dfe9	-0.0010366413
2	0x3b97eb22	0.0046361843
3	0x3b802db0	0.0039116964
4	0xbce2b9db	-0.027676513
5	0xbd6c6c74	-0.057720616
6	0xbc683bb0	-0.014174387
7	0xbcc150fe	-0.02359819
8	0xbd768c5e	-0.06019246
9	0xba8cc380	-0.0010739416
10	0x3c0310e0	0.007999629
11	0x3ccd0438	0.025026426
12	0x3be7dbc0	0.007075757
13	0xbbfac3b4	-0.007652724
14	0xbcfcf1b2	-0.030876968
15	0xbb219bd7	-0.0024659538
16	0x3cf70933	0.030155754
17	0xbbd0ddcf	-0.006374098
18	0xbd79ace5	-0.0609559
19	0xbc6bb448	-0.014386244
20	0x3caff7a4	0.021480389
21	0x3d4a1a2c	0.049341366
22	0xbc88c54d	-0.016695643
23	0x3ba10aeb	0.0049146316
24	0x3ad67ad4	0.001636351
25	0x3c155984	0.0091155805
26	0x3d018905	0.031624813
27	0xbb6bc466	-0.0035975217
28	0x3d155a90	0.03646332
29	0x3cfdd480	0.030985117
30	0xbd6c1636	-0.05763837
31	0xbb50452a	-0.0031779506
32	0x3d73c2bd	0.05951189
33	0xbd239079	-0.0399327
34	0xbd10af9c	-0.035323724
35	0xbcde79ab	-0.027157625
36	0xbd488cf0	-0.048962533
37	0xbd11b704	-0.035574928
38	0xbd07979c	-0.03310357
39	0x3d3aa857	0.045570698
40	0x3d333544	0.04375197
41	0x3d2fe1e6	0.042940043
42	0xbd0e0212	-0.034669943
43	0xbd122ab4	-0.035685256
44	0x3c601f96	0.013679406
45	0xbd4e6b6c	-0.050395414
46	0xbd2a93e8	-0.04164496
47	0x3d74d61d	0.059774507
48	0xbd22bc6b	-0.03973047
49	0xbd484a5a	-0.048899032
50	0xbca4450c	-0.020052455
51	0x3cc46618	0.023974463
52	0x3d633b88	0.055476695
53	0xb9e14200	-0.00042964518
54	0x3d243097	0.0400854
55	0x3d306b21	0.043070916
56	0x3d1fffa0	0.039062142
57	0x3d490aed	0.049082685
58	0xbcc21a04	-0.023694046
59	0x3b8f1f8a	0.0043677734
60	0x3ca46db1	0.020071836
61	0xbd12248c	-0.035679385
62	0xbd22cf50	-0.03974849
63	0x3d67886b	0.056526583
64	0x3d0d3169	0.03447095
65	0xbd305b71	-0.043055955
66	0x3d276947	0.040871885
67	0x3d157026	0.036483906
68	0x3b54ca7e	0.0032469328
69	0xbc1b094e	-0.009462668
70	0x3d45ff60	0.048339248
71	0xbcfa332c	-0.030541979
72	0xbd767ea8	-0.060179383
73	0x3d2d7c16	0.042354666
74	0xbd429942	-0.04750944
75	0xbc093f26	-0.008376872
76	0xba8c9c2e	-0.0010727698
77	0x3d58bebe	0.05291628
78	0x3d383521	0.044972543
79	0xbd0517de	-0.032493465
80	0xbbcc3116	-0.0062314374
81	0xbaa7fb18	-0.0012815921
82	0x3c01ed34	0.007930089
83	0x3cf3f26e	0.029778685
84	0x3cc2b3cf	0.02376738
85	0x3d180af5	0.037119824
86	0x3cc47ead	0.023986185
87	0xbd3d4302	-0.04620648
88	0xbcd84688	-0.02640082
89	0xbd681aef	-0.05666631
90	0x3d5f0317	0.054446306
91	0x3d6a0ea7	0.05714288
92	0x3d297710	0.041373312
93	0x3d44b6cd	0.048025895
94	0x3b150b8d	0.002274248
95	0xbd35c8d2	-0.04438097
96	0xbd4a490a	-0.04938606
97	0xbc450c52	-0.012026863
98	0xbd0eecfe	-0.034893982
99	0x3d0fa2a2	0.035067208
100	0x3d044be2	0.03229893
101	0x3d66a40b	0.056308787
102	0xba376f91	-0.00069975207
103	0xbd5b5f7b	-0.053557854
104	0xbc9b185a	-0.01893251
105	0xbcf5ebab	-0.030019602
106	0xbd56b42d	-0.052417923
107	0xbbd53d48	-0.0065075494
108	0x3d471c3c	0.04861091
109	0xbd6897ee	-0.056785516
110	0xbd306fba	-0.0430753
111	0x3d761f54	0.06008847
112	0xbcbd3a13	-0.023098981
113	0x3d33916b	0.043839853
114	0xbd5d4ce8	-0.05402842
115	0x3ae27873	0.0017278328
116	0x3c8b2d7c	0.016989462
117	0xbd62cf87	-0.055373695
118	0xbd666228	-0.056245953
119	0xbb201cfa	-0.0024431334
120	0xbc17d414	-0.009266872
121	0x3b4433bb	0.002993806
122	0xbd3e66ea	-0.046484865
123	0xbd4fe0a8	-0.05075136
124	0xbd7c660e	-0.061620764
125	0x3d0b026a	0.03393785
126	0x3d5dc0be	0.05413889
127	0x3bea5180	0.007150829
128	0xbd2dd93e	-0.042443506
129	0x3c056c48	0.008143492
130	0xbd6c2963	-0.057656657
131	0x3d4826fb	0.0488653
132	0x3a467b34	0.0007571459
133	0xbd0946de	-0.03351485
134	0xbc910d0f	-0.017706422
135	0x3ce87763	0.02837724
136	0xbb8585df	-0.0040747966
137	0xbca538c6	-0.020168673
138	0xbd0a003c	-0.03369163
139	0xbc87d820	-0.016582549
140	0xbd327c22	-0.043575414
141	0x3b893db0	0.004188262
142	0x3c0c3120	0.008556634
143	0xbd45ec7a	-0.048321225
144	0xbc37a0f8	-0.011207812
145	0xbd2c355c	-0.042043075
146	0x3d020522	0.031743176
147	0x3bec9031	0.0072193374
148	0xbbf1f2d1	-0.0073836823
149	0x3d73a107	0.05947974
150	0x3ce608a0	0.028080285
151	0x3c607f28	0.013702191
152	0x3ca49d98	0.020094678
153	0xbc5c4db5	-0.013446261
154	0x3c7e4be7	0.015521026
155	0xbd63bb35	-0.055598456
156	0x3d79b0b9	0.06095955
157	0x3d62a4ed	0.055333067
158	0xba960c04	-0.0011447673
159	0x3c2f1b6f	0.010687693
160	0xbd1e442a	-0.038639225
161	0xbcbd5104	-0.02310992
162	0xbd348e94	-0.044081286
163	0xbd11e088	-0.03561452
164	0x3a428200	0.0007419884
165	0x3cbae648	0.022814885
166	0x3d329470	0.043598592
167	0xbac214d2	-0.001480723
168	0xbc13a465	-0.009011363
169	0x3d04872b	0.03235547
170	0x3d6a5e0b	0.057218593
171	0x3d617104	0.05503942
172	0x3b5317e6	0.003221029
173	0x3c5b81f0	0.013397679
174	0xbd0af30f	-0.033923205
175	0xbd421c86	-0.047390483
176	0xbd30a840	-0.043129206
177	0x3d6b1ae1	0.05739868
178	0xbd3f3a04	-0.046686187
179	0x3ce918bc	0.028454177
180	0xbd31d750	-0.04341823
181	0xbd3290d0	-0.043595135
182	0x3d29cb3f	0.041453596
183	0xbcb66bb5	-0.022268156
184	0xbcfb07e3	-0.03064341
185	0xbd540cf7	-0.051770177
186	0x3beb744e	0.0071854955
187	0x3cd74af2	0.026280854
188	0x3d4fb690	0.050711215
189	0xbc60b293	-0.01371445
190	0xbd3de87a	-0.046364285
191	0x3d34ed7a	0.044171788
192	0xbd24c2a2	-0.04022468
193	0xbd70efe0	-0.058822513
194	0x3be40010	0.0069580153
195	0xbc95e178	-0.018295988
196	0xbd7f046a	-0.06226007
197	0xbd28115b	-0.041032176
198	0xbca90e54	-0.020636715
199	0xbc9613ed	-0.018320048
200	0xbd60e784	-0.05490829
201	0xbd3d7a20	-0.046259046
202	0x3d415882	0.04720355
203	0xbcf0b22b	-0.029381832
204	0xbd60be23	-0.05486883
205	0xbd270724	-0.040778294
206	0x3d03bdb1	0.032163326
207	0xbd3f39db	-0.046686035
208	0xbb94950e	-0.0045343703
209	0x3c42349e	0.011853365
210	0xbd00f20e	-0.03148084
211	0xbceadedc	-0.02867072
212	0x3d06df87	0.032928016
213	0xbcb2732d	-0.021783436
214	0xbd5b771c	-0.05358039
215	0x3d2159fe	0.039392464
216	0xba1d5169	-0.0006001206
217	0x3d403fb8	0.046935767
218	0xbd5083d4	-0.05090697
219	0x3b8f17e0	0.00436686
220	0xbd4f8058	-0.050659508
221	0x3c906a7c	0.0176289
222	0x3d1ef2b8	0.038805693
223	0xbcf32784	-0.029681928
224	0xbd77a3cf	-0.060458954
225	0x3bdcf012	0.006742486
226	0xbd57c322	-0.052676328
227	0x3a8f2c40	0.0010923222
228	0x3d09aad5	0.033610184
229	0x3d0716d2	0.032980748
230	0xbcff7b4c	-0.031186722
231	0x3d27b73a	0.040946223
232	0x3baf17bc	0.0053434055
233	0x3ca26b46	0.019826543
234	0xbcf1f8be	-0.029537555
235	0xbcc6da4a	-0.02427401
236	0xbcd35854	-0.025798954
237	0x3d5b9fae	0.05361908
238	0x3cfe94e2	0.031076852
239	0x3cc452f5	0.023965338
240	0x3d175288	0.036943942
241	0x3d107e66	0.035276793
242	0x3b24d1db	0.0025149498
243	0x3d26f6c4	0.040762678
244	0x3bb42424	0.0054974724
245	0xbc224ea3	-0.009906444
246	0xbd0b63f6	-0.034030877
247	0xbd11cafc	-0.03559397
248	0xbce9658e	-0.028490808
249	0xbc3980b2	-0.011322187
250	0x3b96d4a0	0.0046029836
251	0x3d627d3c	0.055295214
252	0x3d2525aa	0.040319122
253	0x3d32e67d	0.043676842
254	0xbc061c36	-0.008185437
255	0x3d1dc38d	0.03851657

embedding_projection.0.bias f4 [100]
0	0xbd76c15e	-0.060243003
1	0xbb1b42ff	-0.0023691056
2	0x3b051f34	0.0020312788
3	0x3d68838c	0.056766078
4	0x3d313295	0.04326113
5	0x3d07523a	0.0330374
6	0xbcc17bcb	-0.0236186
7	0xbd081eac	-0.033232376
8	0xbc9f2948	-0.019428864
9	0x3be763c4	0.0070614535
10	0x3c1d9b6b	0.009619574
11	0xba131f63	-0.0005612282
12	0x3d36b7a1	0.044608716
13	0x3ba11148	0.00491539
14	0x3d76826f	0.060182985
15	0x3d277ca6	0.04089036
16	0x3d3723fa	0.044712044
17	0xbc1277e0	-0.008939713
18	0x3d489200	0.04896736
19	0xbcfbc438	-0.030733213
20	0xbab09e76	-0.0013474959
21	0xbd4da3ce	-0.050205044
22	0x3b939637	0.004503991
23	0x3ccded76	0.025137644
24	0xbc894fc5	-0.01676167
25	0xbc125b6b	-0.008932929
26	0xbc68a12b	-0.014198582
27	0xbc8ede4d	-0.017439986
28	0x3c9f3ecc	0.019439124
29	0xbc34a180	-0.011024833
30	0xbd3598ec	-0.04433529
31	0x3d76ecf9	0.06028459
32	0xbd5bb6e1	-0.053641204
33	0x3d3b301a	0.04570017
34	0xbbb72897	-0.0055895555
35	0x3a7bfe87	0.00096128177
36	0x3d56d170	0.05244583
37	0xbd4b1b88	-0.049586803
38	0xbce70f54	-0.028205551
39	0x3c17ab98	0.00925722
40	0x3bf625f7	0.00751185
41	0x3d19bb97	0.037532415
42	0x3d6fa764	0.058509246
43	0xbd44473c	-0.047919497
44	0xbd74b3c2	-0.059741743
45	0x3d5e72a7	0.05430856
46	0x3c13a2cb	0.009010981
47	0x3d2957bf	0.041343447
48	0xbd349cd4	-0.044094875
49	0x3d188c61	0.03724325
50	0x3c546cfb	0.012965436
51	0x3d0fbd62	0.03509272
52	0x3c90bd83	0.017668491
53	0xbd4a8c69	-0.04945031
54	0x3d2bbf44	0.041930452
55	0xbd67e489	-0.056614432
56	0x3c880f70	0.016608924
57	0xbcc7d194	-0.024391927
58	0x3b2462f4	0.0025083395
59	0xbd265464	-0.040607825
60	0xbc6ab310	-0.014324918
61	0xbd81042a	-0.06299622
62	0xbccc2c89	-0.02492358
63	0x3d5dbc54	0.05413468
64	0xbbab8670	-0.005234532
65	0xbd3be817	-0.045875635
66	0x3d6fc580	0.05853796
67	0x3d6d7c14	0.05797966
68	0x3d127e06	0.035764717
69	0x3bbc35a9	0.0057437015
70	0x3c097228	0.008389033
71	0xbc30d811	-0.010793702
72	0x3c84b898	0.016201302
73	0xbcad7ea5	-0.021178553
74	0xbd59ad38	-0.05314371
75	0xbd427454	-0.04747422
76	0xbc60b14d	-0.013714147
77	0xbd82804c	-0.06372127
78	0xbd17c07d	-0.037048806
79	0xbb170fcd	-0.002305019
80	0x3d4a677d	0.0494151
81	0xbd05c28d	-0.03265624
82	0x3d0f3cbe	0.034970038
83	0x3d2b8282	0.04187251
84	0xbd72ac75	-0.0592465
85	0xbd71ba2c	-0.059015438
86	0xbbc80b48	-0.0061048605
87	0x3d43e287	0.047823455
88	0x3c442c8d	0.011973512
89	0xbb6cf4f1	-0.0036156739
90	0xbd335c7c	-0.04378937
91	0x3ca785d4	0.020449556
92	0x3ba95e00	0.0051686764
93	0xbcd2e42b	-0.025743565
94	0xbaa28350	-0.0012398753
95	0xbce7564b	-0.02823939
96	0xbd23dee4	-0.040007487
97	0x3c0069c0	0.007837713
98	0xbd14444f	-0.036197957
99	0x3d76bbbd	0.060237635

embedding_projection.2.weight f4 [100]
0	0x3f80458d	1.0021225
1	0x3f8045c4	1.0021291
2	0x3f80029a	1.0000794
3	0x3f7eff9b	0.99608773
4	0x3f7ee6a8	0.99570704
5	0x3f809b69	1.0047427
6	0x3f7fe690	0.99961185
7	0x3f8075d2	1.0035956
8	0x3f7f603f	0.99756235
9	0x3f80a4e2	1.0050318
10	0x3f7f7cdf	0.99799913
11	0x3f800d35	1.000403
12	0x3f7febcc	0.9996917
13	0x3f7f5dca	0.99752486
14	0x3f7ff5a1	0.99984175
15	0x3f80413c	1.0019908
16	0x3f80da6d	1.0066658
17	0x3f7fb8c5	0.9989131
18	0x3f7efe2a	0.99606574
19	0x3f807fcb	1.0038999
20	0x3f7fe4c8	0.9995847
21	0x3f7ef962	0.9959928
22	0x3f800b6e	1.0003488
23	0x3f801629	1.0006763
24	0x3f800bd9	1.0003616
25	0x3f8014f2	1.0006392
26	0x3f7fced8	0.99924994
27	0x3f803cd3	1.0018562
28	0x3f802f1b	1.0014375
29	0x3f801931	1.0007688
30	0x3f7ff790	0.99987125
31	0x3f7fe8c4	0.9996455
32	0x3f805d33	1.0028442
33	0x3f80e066	1.0068481
34	0x3f803001	1.001465
35	0x3f7fa511	0.99861246
36	0x3f7f5edb	0.9975411
37	0x3f7fbe42	0.99899685
38	0x3f7f2928	0.99672174
39	0x3f7fb794	0.99889493
40	0x3f7ff33b	0.99980515
41	0x3f8022d3	1.0010628
42	0x3f805367	1.0025452
43	0x3f803370	1.0015697
44	0x3f7fb37a	0.99883235
45	0x3f800e91	1.0004445
46	0x3f7fcca0	0.9992161
47	0x3f8060d2	1.0029547
48	0x3f7f9cf7	0.99848884
49	0x3f7fb905	0.9989169
50	0x3f81d604	1.0143437
51	0x3f7fd5aa	0.999354
52	0x3f7fba41	0.99893576
53	0x3f8024df	1.0011252
54	0x3f8020e1	1.0010034
55	0x3f80a3a3	1.0049938
56	0x3f802e44	1.0014119
57	0x3f803129	1.0015002
58	0x3f7ff66d	0.9998539
59	0x3f80bf88	1.0058451
60	0x3f800644	1.0001912
61	0x3f800372	1.0001051
62	0x3f7fc555	0.9991048
63	0x3f7f6500	0.9976349
64	0x3f806a6a	1.0032475
65	0x3f802298	1.0010557
66	0x3f80584a	1.0026944
67	0x3f7fee25	0.99972755
68	0x3f8139a6	1.0095718
69	0x3f7fed5d	0.9997156
70	0x3f7fc8c0	0.99915695
71	0x3f8062b3	1.0030121
72	0x3f7fdd69	0.9994722
73	0x3f7f692b	0.9976985
74	0x3f80558b	1.0026106
75	0x3f7e8352	0.9941913
76	0x3f826943	1.0188373
77	0x3f80ae94	1.0053277
78	0x3f81486a	1.0100224
79	0x3f7fa921	0.99867445
80	0x3f7fabd1	0.99871546
81	0x3f7fa06d	0.99854165
82	0x3f80d85b	1.0066026
83	0x3f7fcfd7	0.99926513
84	0x3f7f66a1	0.99765974
85	0x3f7f8e45	0.9982646
86	0x3f7f9674	0.9983895
87	0x3f7f454d	0.9971512
88	0x3f7fe034	0.9995148
89	0x3f80f686	1.0075233
90	0x3f801b29	1.0008289
91	0x3f7f4f67	0.99730533
92	0x3f801022	1.0004923
93	0x3f81c6ed	1.0138832
94	0x3f7ef906	0.9959873
95	0x3f7fe72f	0.99962133
96	0x3f8006a6	1.0002029
97	0x3f802143	1.0010151
98	0x3f802791	1.0012075
99	0x3f804860	1.0022087

embedding_projection.2.bias f4 [100]
0	0xbad33346	-0.0016113303
1	0xbb04842d	-0.0020220384
2	0xb9e9c966	-0.00044591277
3	0x39095e3d	0.00013100445
4	0xb9ce6496	-0.00039366324
5	0xbb4e9fb3	-0.0031528294
6	0x3a35d218	0.00069359085
7	0xbb8d7934	-0.004317427
8	0x3a206aea	0.0006119447
9	0x3b0781ba	0.0020676688
10	0x3ab6dd35	0.0013951423
11	0xbaffaf2a	-0.0019507159
12	0x3a0a221c	0.0005269365
13	0x3b2eaafa	0.0026652203
14	0xbabe1172	-0.0014501049
15	0xbb0f5db8	-0.002187593
16	0xbaec1b6f	-0.0018013547
17	0x3b482042	0.0030536805
18	0xb9d7fb60	-0.00041195285
19	0xbaefa899	-0.0018284499
20	0xb9bdac13	-0.00036177094
21	0xb925bcb1	-0.00015805919
22	0xbad0296f	-0.0015881489
23	0xb9c1c17e	-0.00036955992
24	0xb98e9d6c	-0.0002720164
25	0xbaac8cb0	-0.0013164487
26	0x3abfbd87	0.0014628627
27	0xbb205000	-0.0024461746
28	0xbad29411	-0.0016065856
29	0xba317c88	-0.0006770571
30	0x3addbb21	0.0016916731
31	0xb91a91e7	-0.00014740937
32	0xb9461ae3	-0.00018892768
33	0xbadd22e3	-0.0016871359
34	0x39b6952f	0.00034824896
35	0xbae85b85	-0.001772747
36	0x3af3c5de	0.0018598398
37	0x3a216c50	0.00061578024
38	0x3a5c83f2	0.00084119954
39	0x3ad10630	0.0015947279
40	0x3ab1732d	0.0013538353
41	0x397405d1	0.0002327182
42	0xbb00e94f	-0.0019670313
43	0xbaa395b2	-0.0012480526
44	0x3abf0639	0.0014573998
45	0xb83f915d	-4.567333e-05
46	0x3b1521ed	0.0022755817
47	0xbb938c36	-0.0045027984
48	0x3b1abf55	0.0023612578
49	0x3aeca448	0.0018054331
50	0xbaddbeed	-0.0016917862
51	0xb7d69106	-2.557832e-05
52	0xb9b1cacf	-0.00033911175
53	0xbac536ec	-0.0015046275
54	0x3a7e4b18	0.0009700521
55	0x3b154dfa	0.0022782073
56	0xba393865	-0.00070655934
57	0xbb6719e3	-0.0035263232
58	0x3b003505	0.0019562852
59	0xba5a9eb1	-0.0008339687
60	0xba1c4301	-0.0005960912
61	0x395db234	0.00021142588
62	0x3980eeff	0.00024592128
63	0x397802ca	0.00023652162
64	0xbb3f3faf	-0.0029182245
65	0xb98a5a59	-0.00026388725
66	0x39cf62b1	0.00039555648
67	0xb98db4b4	-0.0002702825
68	0x3ac1e8bc	0.0014794092
69	0x3adbfe86	0.0016784228
70	0x3a715ea8	0.0009207525
71	0x390b4486	0.000132816
72	0x39fb4372	0.000479247
73	0x3b272901	0.0025506618
74	0xbada9086	-0.0016675151
75	0x3a6712ac	0.0008814733
76	0xb82853f4	-4.013251e-05
77	0xbb2bf65b	-0.0026239369
78	0x39317de4	0.00016926933
79	0xbafd7a42	-0.0019338804
80	0xbb0dd5b2	-0.0021642265
81	0x3b694e88	0.0035599787
82	0x3b6da7bc	0.0036263308
83	0xbad0b1f1	-0.0015922171
84	0x3a974f3c	0.0011544
85	0x3b1c19b4	0.0023819031
86	0xbaccab5d	-0.0015615035
87	0x3b6f1ae3	0.0036484532
88	0x3a195f7c	0.0005850715
89	0xba4191be	-0.0007384083
90	0x398a88be	0.00026423292
91	0x3a8a67fc	0.0010559554
92	0xbaf86bc3	-0.0018953014
93	0x3b01bdeb	0.0019797038
94	0x3a93e97e	0.0011284796
95	0x39af1405	0.00033393517
96	0x3a93dd23	0.0011281114
97	0x3a548c53	0.0008108068
98	0xbb02fc19	-0.0019986688
99	0xbad7730a	-0.0016437483

embedding_projection.3.weight f4 [48, 100]
0	0x3d389368	0.045062453
1	0xbc3dea7a	-0.011591548
2	0x3d154e86	0.03645184
3	0xbd94f9ee	-0.07274233
4	0xbdcfa79e	-0.10139392
5	0x3db42e55	0.087979
6	0xbcee5308	-0.029092327
7	0xbd29d13d	-0.04145931
8	0xbd9d8df3	-0.0769309
9	0xbd8191a9	-0.063266106
10	0x3ceb56f3	0.028727984
11	0xbbc56571	-0.0060240556
12	0x3d3b5e8c	0.045744464
13	0xbb936872	-0.004498535
14	0x3d7c827f	0.06164789
15	0x3d7c1f1b	0.061553102
16	0x3b2212b9	0.0024730398
17	0x3d056a0c	0.032571837
18	0x3bcaece1	0.006192789
19	0x3ca14d01	0.019690039
20	0x3baf848b	0.0053563765
21	0xbca67398	-0.020318791
22	0xbc19e734	-0.009393502
23	0x3dd69623	0.10477855
24	0x3dba6fd7	0.09103363
25	0xbdb18959	-0.08668775
26	0x3d9f3f62	0.07775761
27	0xbd937125	-0.07199315
28	0x3d904db8	0.07046074
29	0x3db6a716	0.08918588
30	0x3d8d4fcc	0.06899986
31	0xbca83244	-0.020531781
32	0x3dc963d9	0.098334976
33	0xbd1eabb4	-0.038737968
34	0xbdac7324	-0.08420399
35	0x3dbf27b8	0.093337476
36	0xbda87a74	-0.08226481
37	0xbd62bebc	-0.05535768
38	0xbd2a333e	-0.041552775
39	0xbd76e22a	-0.06027428
40	0x3d85f2b1	0.0654043
41	0x3cfe5371	0.031045647
42	0x3d65615f	0.056001063
43	0x3db78f23	0.08962848
44	0x3c91b5c5	0.01778687
45	0xbd6264fa	-0.05527208
46	0xbd3e6587	-0.046483543
47	0x3da87b98	0.08226699
48	0xbdb4ffde	-0.08837865
49	0x3dc68e97	0.096951656
50	0xbc1e6f45	-0.009670083
51	0xbda0dfc5	-0.07855181
52	0xbd54a7b0	-0.05191773
53	0x3db7561c	0.08951971
54	0xbdc30873	-0.09523096
55	0x3c7c3e20	0.015395671
56	0x3d626569	0.055272494
57	0x3d7b01c2	0.061280973
58	0xbdbbfcaa	-0.09179051
59	0x3db55533	0.08854141
60	0x3c8ca4e4	0.01716847
61	0xbc3c114a	-0.011478731
62	0x3d53fe58	0.051756233
63	0x3c96483c	0.01834499
64	0x3cbe8b66	0.02325983
65	0xbb0182e4	-0.0019761855
66	0xbd2623c0	-0.040561438
67	0xbd4230d6	-0.047409855
68	0x3d8d0773	0.068861865
69	0xbd9303c7	-0.07178455
70	0xbd51e00c	-0.05123906
71	0x3d1e9e8e	0.03872543
72	0x3abf7e44	0.0014609774
73	0x3cb6df24	0.022323199
74	0x3db0efda	0.08639498
75	0x3d679189	0.056535278
76	0x3d85a7e4	0.06526163
77	0xbd195922	-0.03743852
78	0x3dc4a9a5	0.096026696
79	0x3d88c14b	0.06677493
80	0xbcf73642	-0.03017724
81	0x3bd507d9	0.0065011797
82	0xbcc772b5	-0.024346689
83	0xbc0959eb	-0.0083832545
84	0xbd1df334	-0.038562015
85	0x3dd03cd4	0.10167852
86	0xbc66a132	-0.014076518
87	0xbd511130	-0.051041782
88	0x3d05d47b	0.03267334
89	0x3c91fb57	0.017820043
90	0xbd7c8175	-0.061646897
91	0xbdbc3ec6	-0.091916606
92	0xbcbd8247	-0.02313341
93	0xbda5834c	-0.080816835
94	0xbd2409cd	-0.04004841
95	0x3ce2425f	0.027619539
96	0x3da7761c	0.081768245
97	0x3d45d332	0.048297115
98	0xbd337b12	-0.04381854
99	0x3d6eba9f	0.058283444
100	0xbd91844c	-0.07105312
101	0xbb1537f1	-0.002276894
102	0x3d20a670	0.039221227
103	0xbdb73d3c	-0.089472264
104	0xbb893737	-0.0041874903
105	0x3d974300	0.07385826
106	0xbda0b302	-0.07846643
107	0x3db77041	0.089569576
108	0x3d354aca	0.044260778
109	0xbdc6694e	-0.09688054
110	0xbd0bbec3	-0.03411747
111	0xbd13e15c	-0.03610359
112	0xbd9fe3d4	-0.07807127
113	0x3ab96683	0.0014144931
114	0x3d2999f7	0.041406598
115	0x3d92e257	0.07172077
116	0x3d0a4d04	0.033764854
117	0xbbc80cc0	-0.0061050355
118	0xbd24dcde	-0.040249698
119	0x3d6d8102	0.05798436
120	0xbd949cc6	-0.07256465
121	0xbd82249e	-0.063546404
122	0xbd61476e	-0.05499976
123	0xbd4fb3a2	-0.05070842
124	0xbd6601c7	-0.05615404
125	0x3d6ac167	0.05731335
126	0x3d8e49d2	0.06947674
127	0x3db36218	0.08758944
128	0x3d4c19e3	0.049829375
129	0x3dd5f8a3	0.10447814
130	0xbcf5decb	-0.030013463
131	0xbd8928c4	-0.066972286
132	0x3d40334c	0.04692392
133	0x3bffbb72	0.0078043276
134	0x3cb45e48	0.022017613
135	0xbb5c7c9e	-0.0033643614
136	0xbd0d7ef1	-0.03454489
137	0x3d796beb	0.060893934
138	0xbcf140c1	-0.029449822
139	0x3d05521e	0.032549016
140	0xbd1fe64d	-0.03903799
141	0x3d7615e0	0.060079455
142	0xbd0e4a5e	-0.03473889
143	0x3dcee20d	0.101017095
144	0x3db93525	0.0904334
145	0xbdb1eb45	-0.08687452
146	0xbdad5d5e	-0.08465074
147	0xbd8ff550	-0.070292115
148	0xbd96ef76	-0.07369892
149	0xbdbaa0b0	-0.0911268
150	0x3d218b15	0.03943928
151	0xbd9a8f29	-0.07546837
152	0x3d7a826f	0.061159547
153	0xbd6f3da6	-0.058408402
154	0x3c834db8	0.01602827
155	0xbcd01d1e	-0.02540451
156	0x3cc37a61	0.023862066
157	0xbd2a4760	-0.041571975
158	0x3da3c42d	0.07996402
159	0x3d98bb81	0.074576385
160	0x3d8f8b44	0.07008985
161	0x3d9ef45e	0.07761453
162	0x3b9fc871	0.0048761894
163	0x3d30b7a7	0.043143895
164	0xbca24f14	-0.019813098
165	0xbdaabf4b	-0.083372675
166	0xbded4780	-0.11585903
167	0x3d734f79	0.059401963
168	0x3d4c56f9	0.04988763
169	0xbd85aec4	-0.065274745
170	0x3dbd0805	0.09230045
171	0xbdd40e88	-0.10354334
172	0xbda2d0c6	-0.079499766
173	0xbda4cfec	-0.080474705
174	0xbb90f342	-0.00442353
175	0xbd68966b	-0.056784075
176	0xbd0a94e9	-0.033833418
177	0xb9a029e0	-0.00030548777
178	0x3dd870c8	0.10568386
179	0x3da447ed	0.08021531
180	0xbcd69309	-0.026193159
181	0xbd2f0a4c	-0.04273443
182	0xbd918b37	-0.07106631
183	0x3c5adbf5	0.013358106
184	0x3d1914e2	0.03737343
185	0x3d8935b7	0.066996984
186	0x3cc0f4b6	0.023554187
187	0xbd8d1b4e	-0.068899736
188	0xbd615aef	-0.05501836
189	0x3db1e0d4	0.08685461
190	0xbdc6ed30	-0.09713209
191	0x3d29b946	0.041436456
192	0x3d318ec6	0.04334905
193	0xbd6ca2fc	-0.05777262
194	0xbd24cbe5	-0.04023351
195	0x3d8929d3	0.066974305
196	0xbc875188	-0.01651837
197	0x3dd42cd9	0.103601165
198	0xbccd7ad0	-0.025082976
199	0x3dca3b95	0.098746456
200	0xbc162624	-0.009164367
201	0x3dcd0e3d	0.10012481
202	0x3ccb435c	0.024812393
203	0x3db44001	0.0880127
204	0x3cd1eea5	0.02562649
205	0x3dccbe3a	0.0999722
206	0xbb3ef729	-0.0029139018
207	0x3da5c323	0.0809386
208	0xbdc702c8	-0.09717327
209	0xbdc561d3	-0.09637799
210	0xbcf3e196	-0.029770654
211	0x3c10d1bd	0.008839068
212	0x3d78a016	0.060699545
213	0xbd479cad	-0.048733402
214	0x3d0b8282	0.03406001
215	0x3bcf3f2f	0.0063246707
216	0x3d851776	0.064986154
217	0x3dcb0e86	0.099148795
218	0xbdb22020	-0.086975336
219	0x3d4c01d7	0.049806442
220	0x3d591d2c	0.053006336
221	0x3da5c972	0.08095063
222	0x3d12d6b1	0.035849277
223	0xbd782393	-0.0605808
224	0xbdad2181	-0.08453656
225	0xbbf56308	-0.007488612
226	0x3c458212	0.012054937
227	0x3ca3b57e	0.019984003
228	0x3dd9eba4	0.10640648
229	0xbd9db3b6	-0.07700293
230	0xbc85aeab	-0.01631864
231	0x3d20d05f	0.03926122
232	0x3d0342f2	0.032046266
233	0x3da86ace	0.082234964
234	0xbdcaf46f	-0.09909903
235	0x3b9f5b2f	0.004863165
236	0x3dab513c	0.083651036
237	0x3d3e16d7	0.0464085
238	0x3d435f4c	0.047698304
239	0xbd059513	-0.03261287
240	0xbd4020bf	-0.04690623
241	0xbd6e730a	-0.05821518
242	0x3db989a5	0.09059457
243	0x3ce05076	0.027382117
244	0xbd8fb24c	-0.07016429
245	0x3d5d35f2	0.054006524
246	0xbcdd17b0	-0.026988834
247	0x3dc41e42	0.09576084
248	0x3d40b226	0.047044896
249	0xbd404dc7	-0.046949174
250	0x3d83e0a4	0.06439331
251	0xbd16cf15	-0.036818583
252	0x3bd7f327	0.0065902653
253	0x3dc2e66b	0.09516605
254	0xbdca8f7b	-0.09890648
255	0x3c76137d	0.015019295

embedding_projection.3.bias f4 [48]
0	0x3d923e2c	0.071407646
1	0x3da5a7af	0.08088624
2	0xbddc108b	-0.10745343
3	0x3c95e006	0.0182953
4	0xbd06a8c9	-0.03287581
5	0xbd67e198	-0.056611627
6	0x3c1fb5b6	0.009747913
7	0x3ce02265	0.02736015
8	0xbd55eb6d	-0.052226473
9	0x3da5f2da	0.08102961
10	0x3d9c3db6	0.07628958
11	0x3d8bf346	0.0683351
12	0xbd815dee	-0.06316744
13	0xbd1d3fa6	-0.038390778
14	0x3d7c5b99	0.06161079
15	0xbd87208d	-0.065980054
16	0xbbe99ca7	-0.00712927
17	0x3b9b855f	0.0047461237
18	0x3b22825a	0.0024796934
19	0x3ce3766c	0.027766429
20	0xbcb2efa6	-0.021842789
21	0x3dc101ba	0.094241574
22	0x3d4e61ef	0.050386366
23	0x3b9e4862	0.004830406
24	0xbbc80486	-0.006104055
25	0xbd8826bb	-0.06648012
26	0x3d550012	0.05200202
27	0x3d8bd6a9	0.068280526
28	0x3be6c4f8	0.0070425235
29	0xbd00461b	-0.031316858
30	0x3db125a4	0.086497575
31	0x3c69218f	0.014229192
32	0x3cb04be7	0.021520568
33	0x3d957078	0.07296842
34	0x3c851c5d	0.016248876
35	0x3c6f9a67	0.014624215
36	0xbd26396d	-0.04058211
37	0xbd333203	-0.043748867
38	0xbd1f3a43	-0.038873922
39	0x3dcb485f	0.09925913
40	0x3d9e4322	0.07727648
41	0x3d355701	0.044272427
42	0x3d392687	0.04520276
43	0xbda24311	-0.07922948
44	0xbc7d16e3	-0.015447351
45	0x3d7682d5	0.060183365
46	0xbdaafaaf	-0.08348595
47	0xbd892931	-0.0669731
