abr/data/final_projection.pt (torch, 457294 bytes, 2 tensors)

weight f4 [10, 48]
0	0xc1ded02a	-27.851643
1	0xc1790c40	-15.565491
2	0x4131c272	11.109972
3	0x41e2295b	28.270193
4	0xc2488c30	-50.1369
5	0x425c6e99	55.108006
6	0x420f4abd	35.822987
7	0xc1dd7098	-27.679977
8	0xc16287e6	-14.158178
9	0xc15d5bfc	-13.834957
10	0x4149fa59	12.62362
11	0xbf0d98f0	-0.5531149
12	0x41531b1e	13.19412
13	0x406a80c4	3.6641092
14	0x4030320c	2.7530546
15	0x401d2ac4	2.4557352
16	0xc007c001	-2.121094
17	0x405a308e	3.4092135
18	0x40ff1895	7.9717507
19	0xc0a8a752	-5.270425
20	0x4206e4b9	33.723362
21	0x41046dce	8.276808
22	0xc121b98f	-10.107802
23	0x3c7d4ffc	0.015460964
24	0xc12bf227	-10.746619
25	0xc1b9c365	-23.220407
26	0x41a68ca9	20.818682
27	0x405f9686	3.4935622
28	0xc11316a5	-9.193028
29	0x4061c62d	3.5277207
30	0xc12593d2	-10.348589
31	0x41023565	8.138036
32	0x4182a7d8	16.331955
33	0x40531283	3.2980049
34	0xc1a6b314	-20.83744
35	0xc1444214	-12.266132
36	0xc0696c22	-3.647225
37	0xc28bb9c1	-69.8628
38	0xc19c3998	-19.528122
39	0x4165de0f	14.366714
40	0x41c803a5	25.00178
41	0x4219f9c8	38.493927
42	0xc21ac936	-38.696495
43	0xc013c5cf	-2.3089483
44	0x3f2cf537	0.6756167
45	0xc10e8b96	-8.909079
46	0x412b1f87	10.695197
47	0xc17cabad	-15.791913
48	0x3c96f800	0.018428802
49	0x3c151176	0.009098401
50	0xbbbb697c	-0.005719362
51	0xbc332ed2	-0.010936456
52	0xbcaf1e7c	-0.02137684
53	0xbc84d16c	-0.016213141
54	0xbcd61d1a	-0.026136924
55	0x3c94d3b5	0.018167356
56	0xbc248c24	-0.010043178
57	0xbd18d7c9	-0.037315164
58	0xbbed6022	-0.007244126
59	0x3b977702	0.004622341
60	0xbcb4898c	-0.022038244
61	0xb9f98c18	-0.0004759736
62	0x3c184d41	0.0092957625
63	0xbc46d07b	-0.012134667
64	0xbc94a5bc	-0.018145435
65	0xbd6fe9e4	-0.058572665
66	0xbd150d36	-0.036389552
67	0xbd1253cd	-0.03572445
68	0x3c572432	0.013131188
69	0xbc23dd14	-0.01000144
70	0xbd4ef830	-0.05052966
71	0xbc0054f2	-0.007832753
72	0x3a7c90c8	0.0009634611
73	0xbcb99000	-0.022651672
74	0xbc6c01b4	-0.014404703
75	0xbbb9c9f4	-0.0056698266
76	0xbc90773c	-0.01763498
77	0xbccccc39	-0.024999725
78	0xbce60e81	-0.028083088
79	0xbc1e819e	-0.009674458
80	0xbb583e28	-0.0032996032
81	0xbb89e71b	-0.004208458
82	0xbcab49db	-0.02090924
83	0x3b4a28c8	0.0030847061
84	0xbb7c6bd5	-0.0038516421
85	0xbcaf4740	-0.02139628
86	0xbc2f210c	-0.010689031
87	0xbbf9feca	-0.00762925
88	0xbc7447a2	-0.014909657
89	0x3c0e9754	0.008703072
90	0xbd0cca0a	-0.034372367
91	0x3c587203	0.013210776
92	0x3b700ed8	0.0036629941
93	0xbc327f73	-0.010894644
94	0x3bfddc82	0.007747234
95	0x39dabdfa	0.00041721744
96	0xc17e1399	-15.879785
97	0xc0507aa7	-3.257486
98	0x40ea11a5	7.314654
99	0x41d98d04	27.193855
100	0xc1e65b62	-28.79462
101	0x41f58348	30.689102
102	0x41524f4a	13.144358
103	0xc185b45e	-16.71307
104	0xc11c7f4c	-9.781078
105	0xbf247a9f	-0.64249605
106	0x4107a39b	8.477443
107	0xc0299634	-2.6497927
108	0x412aee1e	10.683134
109	0xc041b025	-3.026376
110	0x409c68d6	4.8877974
111	0x403272cc	2.7882566
112	0x4064236b	3.5646617
113	0x407c6316	3.9435477
114	0x40bfb425	5.9907403
115	0xbf9c8112	-1.2226889
116	0x41cefd8d	25.873804
117	0x411481e1	9.281709
118	0x400e1d8e	2.2205539
119	0xc03ce343	-2.951371
120	0xc0ad57f1	-5.416985
121	0xc14e0345	-12.875798
122	0x410263ea	8.149393
123	0xbfea75ea	-1.8317235
124	0xc11f750d	-9.966077
125	0xc09089e4	-4.5168324
126	0x3f9a3585	1.2047583
127	0x4090324c	4.5061398
128	0x405e6855	3.475118
129	0xbfb72e3a	-1.4310982
130	0xc152fde1	-13.186982
131	0xc18776f3	-16.93308
132	0xc1006a5a	-8.025965
133	0xc21966b3	-38.350292
134	0xc14ec8cd	-12.924024
135	0x4164c3ca	14.2978
136	0x4150c79d	13.048734
137	0x418320a0	16.39093
138	0xc18161ae	-16.172695
139	0x40c1009c	6.0313244
140	0x409363d8	4.605938
141	0x41299000	10.597656
142	0xc0a8d09d	-5.2754655
143	0xc117be16	-9.483908
144	0x3bc039c6	0.005866262
145	0x3c6790df	0.014133661
146	0xbc844a57	-0.01614873
147	0x3bfa9702	0.007647396
148	0xbac6b944	-0.0015161415
149	0x3b7b01a4	0.0038300538
150	0x3b8267dc	0.003979666
151	0xba1625b8	-0.00057276664
152	0x3ab11094	0.0013508969
153	0xbb89110c	-0.0041829403
154	0xbc896ee0	-0.016776502
155	0x3c7d8e10	0.015475765
156	0xbb659fd9	-0.0035037904
157	0x3badcb46	0.005303773
158	0xbb2f2ca4	-0.0026729489
159	0xbc267aa9	-0.01016108
160	0xbac7463b	-0.0015203425
161	0x39a7b260	0.00031985622
162	0x3bb29eb7	0.005451049
163	0xbb999227	-0.004686612
164	0xbd014753	-0.03156216
165	0xbd0e96c5	-0.034811754
166	0xbb46d5c4	-0.0030339817
167	0xbcfd0682	-0.030886892
168	0xbc54215e	-0.0129474085
169	0xba6a1778	-0.0008929889
170	0xbc3fde5e	-0.011710731
171	0xbcc6b5b4	-0.024256565
172	0xbc59ec17	-0.013300917
173	0xbc05b005	-0.008159642
174	0xbbc300ec	-0.0059510376
175	0xbc739fea	-0.014869669
176	0xba977173	-0.0011554196
177	0xbcae60c0	-0.021286368
178	0x3c457e76	0.012054076
179	0xbab3743c	-0.0013691257
180	0x3a8984f4	0.0010491894
181	0x3c3256f6	0.010884991
182	0x3cc11a75	0.023572186
183	0xbc3edbd0	-0.011649087
184	0xbaa79018	-0.0012784032
185	0xbc554b68	-0.0130184665
186	0xbca25a32	-0.0198184
187	0xbabdeba4	-0.0014489782
188	0xbb348e9a	-0.0027550817
189	0xbc5efc3d	-0.013609943
190	0xbc571bcb	-0.013129185
191	0x3b87f5bc	0.004149167
192	0xc12b41b5	-10.703542
193	0xbe81d5fd	-0.25358573
194	0xbd01cefb	-0.031691533
195	0x41d618f9	26.762194
196	0xc0e46c2a	-7.1382036
197	0x4181cb69	16.224321
198	0x411c2fee	9.761702
199	0xc0e890a4	-7.2676563
200	0xc0babf6b	-5.8358665
201	0xbfc32b57	-1.5247601
202	0x3fb0f304	1.3824162
203	0xc103cee4	-8.23801
204	0x3f843fb7	1.0331944
205	0xc06481a4	-3.5704126
206	0x4097f2c1	4.748383
207	0x3d2554c9	0.04036406
208	0x40de9c09	6.9565473
209	0xbf9f9c3c	-1.2469554
210	0x3c4afe39	0.012389713
211	0xc0aded74	-5.435236
212	0x414db259	12.856042
213	0x40ced3b5	6.463343
214	0x3eee3a0b	0.46528658
215	0xc0782b88	-3.877657
216	0xc05de983	-3.4673774
217	0xc010caa0	-2.2623672
218	0x3c6497e9	0.013952234
219	0xc0860723	-4.188371
220	0xbfec0551	-1.8439122
221	0x3f41ddfa	0.75729334
222	0x3fcda9ba	1.6067421
223	0x40a5f693	5.1863494
224	0xbf5e5f05	-0.8686374
225	0x3fe97560	1.8238945
226	0x3adf298e	0.0017025934
227	0xc139f7ef	-11.623031
228	0xc0e0370e	-7.0067205
229	0xc1b40bc9	-22.505754
230	0xc10d7d00	-8.843018
231	0x411f69d6	9.963339
232	0x4105919d	8.34805
233	0x4092d5f1	4.588616
234	0xbf38940e	-0.72100914
235	0x4142e51e	12.180937
236	0x3f3fb614	0.74887204
237	0x3f4b2d98	0.79366446
238	0xc0bf9e71	-5.988091
239	0xc0c854fc	-6.260374
240	0xc0c75acb	-6.229833
241	0xc1422f3c	-12.136532
242	0x40bdb2c8	5.928074
243	0x41913107	18.14894
244	0xc0cf2b12	-6.4740076
245	0x41260c50	10.378006
246	0xbfde560a	-1.7370007
247	0xc04cf471	-3.2024195
248	0xc1124691	-9.142228
249	0x4100818c	8.031628
250	0x40e71918	7.221813
251	0xc0a0deed	-5.0272126
252	0xbc7db90d	-0.015486014
253	0x40871288	4.221012
254	0x3fe7350a	1.8063061
255	0xbf88d4cf	-1.0689944

bias f4 [10]
0	0x3c5598d2	0.0130369235
1	0xc0c4192f	-6.128074
2	0x3db08c0a	0.0862046
3	0xc0c41097	-6.127025
4	0xba4ad99c	-0.0007738115
5	0x3ce6eda9	0.028189497
6	0x3d87b60d	0.0662652
7	0x3cdb65e4	0.026781984
8	0xc0c407dc	-6.1259594
9	0x3ea4db22	0.32198435
